app/src/main/assets/nn_100epch_64bs.tflite (tflite, 47688 bytes, 8 tensors)

sequential/dense_1/BiasAdd/ReadVariableOp f4 [64]
00000000: b385 333e f30b 0c3e dc9a d9be d7d8 393e
00000010: 6b87 cabd bda0 98be 30a1 acbe 9141 bd3d
00000020: 9e7d dabb 7b33 213e b318 713e 6041 ed3d
00000030: 8ad7 84bd f8dc d6be 5c2f 283e 3fec c4bd
00000040: da5b c8bd 2ac5 f0bd 3f10 debd 6eba 083e
00000050: a9b4 1c3e f498 d1be 6256 e0be 5317 fbbe
00000060: 65ef 13be 59ec 4ebe 17ad b2be 9f09 a93c
00000070: 39fb 49be 95c1 df3b f5be 733d ad13 0cbe
00000080: 264d 9d3d 4fdb 8c3d 0da1 1ebc 925d debe
00000090: 795a 563d f74f ce3d d715 383c 1c4d d73d
000000a0: 640b 7ebe e0f5 68be 63f1 dc3d 69b3 2d3e
000000b0: bf53 113e 6682 373d 0939 81bc aceb 05be
000000c0: ed79 e1bd 85e5 f7be a341 88be d137 87bd
000000d0: f074 cb3d acd0 07be 104b 82bd 0385 c8be
000000e0: 15c1 00be 70ca 6e3c d57d 0b3e 8026 51be
000000f0: 6271 c5bd ea3d 5cbe 0145 9abe 5a93 03bf
0.17531471 0.13676433 -0.4250096 0.18149124 -0.0988911 -0.29810134 -0.33716726 0.092410214
-0.0066678068 0.15742294 0.23544578 0.11584735 -0.06486423 -0.4196546 0.16424316 -0.09615373
-0.09783144 -0.11756356 -0.108429424 0.13352367 0.15303291 -0.40937006 -0.43815905 -0.49041232
-0.1444679 -0.20207347 -0.34897682 0.02063447 -0.1972474 0.0068284967 0.059508283 -0.1367938
0.076807305 0.06877767 -0.009681952 -0.43430763 0.052332375 0.10073846 0.011235676 0.10512754
-0.24809033 -0.22750044 0.10788228 0.16962971 0.14192103 0.044802092 -0.015774267 -0.13078183
-0.110095836 -0.48417297 -0.26612577 -0.06602443 0.099344134 -0.13263196 -0.06361973 -0.3916398
-0.12573655 0.014574632 0.1362222 -0.20424843 -0.09640767 -0.21507993 -0.3013077 -0.51396716

sequential/dense_2/BiasAdd/ReadVariableOp f4 [32]
00000000: e144 6d3e d365 603d fb7d 8a3e 5254 b43d
00000010: c53c 643d f728 ad3c 5a76 973d 81d1 093d
00000020: f3a8 033d 0d83 803d 4a23 843e b63e 4cbb
00000030: 6479 403e b147 333e a7a9 7c3d aaee 813e
00000040: 4acc 7a3d 4187 903e d6ff c43d f02c 8c3e
00000050: feed 243d 0882 763d 9146 f43b 489b 903e
00000060: ed67 1b3d 99f2 c43d 613f b53c 4043 3c3e
00000070: 1ab2 b93d 950c 963d 2637 403e 6dbc 8e3d
0.23170806 0.054784607 0.2704924 0.08805145 0.055722017 0.021137698 0.07395621 0.033647064
0.032143544 0.06274996 0.25808173 -0.0031165308 0.18796307 0.17507817 0.06168523 0.253774
0.06122998 0.2822819 0.09619109 0.27378035 0.04026603 0.0601826 0.0074547012 0.2824347
0.03794091 0.09616584 0.022124948 0.18385029 0.09067173 0.073266186 0.18771037 0.06969533

sequential/dense_3/BiasAdd/ReadVariableOp f4 [2]
00000000: 7fe9 0cbd 89e9 0c3d
-0.034402367 0.034402404

sequential/dense/BiasAdd/ReadVariableOp f4 [128]
00000000: e289 ccbd 6c83 d3be 840a 7a3d dd5a 9a3e
00000010: 6a55 973e fae6 51be 3a12 94be 6bff 6ebe
00000020: 0c48 77bd 7ab2 09bf 88c8 3ebe 425f 48bc
00000030: 4a90 05bc 06e0 df3d 4e5c 7c3e b8de df3e
00000040: a75f 8cbe 5d39 89bf 9df3 28be a1de 0cbf
00000050: 2f9b 9a3d 028d 3a3d bc4a 923d 5d04 76bd
00000060: 0ca5 54bd da79 26be b771 ce3e 0065 3cbe
00000070: 427f 603e f02e 0fbd d406 573c a53d e83e
00000080: b704 c2bd c9fa 9cbe e38c 42be cc9d 343d
00000090: dbe0 b4bd f4f3 0abe fd4a 15be 35ab 85bb
000000a0: 2cc5 07bf d31f 8c3d d704 a1be 064a 133e
000000b0: 77e9 b7bd 683e 03bd 181a 16bd b01e 953d
000000c0: bda1 4dbe 2b2f d3bd 1b30 04bc e2fc 65bb
000000d0: f97b 55be 6476 5abf 80d4 a9bc fb61 09bf
000000e0: d982 69be 9143 5bbf ec66 a2be 9804 3d3e
000000f0: 2a8e 8ebe d086 a43d dca4 6b3e 3471 89be
00000100: 025c 9bbe 257c bc3d 1999 02b8 348e babe
00000110: dace e0bd ad29 e33b 2a7c 44bf ee9f 0abf
00000120: b123 f73e cdde 223f 4503 5fbd dc11 69be
00000130: f91d 04bf 4697 8abd 79df c43d 4487 c8be
00000140: e229 47bd 531b 3dbf 5c49 0dbe e9f7 44bf
00000150: dcf4 3fbe e864 963d 4d10 16bf 3ef0 27be
00000160: 51ed 94be 9403 84be 6d37 6cbe b76c 1a3f
00000170: 9aeb c4bd 1c6d 22bd 0267 3ebe 1158 babe
00000180: c4be b53e 4e65 e4bc 6ffa 11bd 8281 4ebe
00000190: 03a4 a5bd 04b3 fd3b 4354 b13d 2c15 eabd
000001a0: d86e 9abe c617 6c3e 8515 cfbe be2c d33d
000001b0: a19a 86bc 93f8 89bf 904b 7bbd 4be9 c43d
000001c0: 9571 7cbe cc69 b43b 1938 e0be a132 e5bd
000001d0: aaa8 5abc cf58 1bbe 134d 153b 3aed db3b
000001e0: bda0 00bf 4167 91be 5c9a 893d cdc4 1cbf
000001f0: 3d21 87be 55c2 fabd 4d98 edbc 3c63 233d
-0.099872366 -0.41311204 0.061045185 0.30147448 0.29557353 -0.20498267 -0.28920156 -0.23339622
-0.060371444 -0.5378796 -0.18631184 -0.0122297425 -0.008152077 0.10931401 0.24644586 0.43724608
-0.27416727 -1.0720631 -0.16499181 -0.55027205 0.0754913 0.04554463 0.07143161 -0.060062755
-0.051915213 -0.1625742 0.40321133 -0.18397903 0.21923545 -0.034956872 0.013124187 0.4535953
-0.094735555 -0.30660084 -0.18999057 0.0440958 -0.0883195 -0.13569623 -0.14579387 -0.0040792474
-0.53035235 0.068420075 -0.31449005 0.14383706 -0.08980077 -0.032041937 -0.03664598 0.07281244
-0.2008123 -0.10311731 -0.00806811 -0.0035093357 -0.20848073 -0.853369 -0.02073121 -0.5366513
-0.2280382 -0.85649973 -0.31719148 0.18458784 -0.27842838 0.08033526 0.23012108 -0.2684418
-0.30343634 0.09203366 -3.1137e-05 -0.36436617 -0.10976954 0.0069324584 -0.7675196 -0.54150283
0.48269418 0.63621217 -0.054446477 -0.22760719 -0.51608235 -0.06767134 0.096129365 -0.391657
-0.048623927 -0.7386982 -0.13797516 -0.7694078 -0.1874575 0.07343465 -0.58618623 -0.16400239
-0.29087308 -0.2578398 -0.23068018 0.60322136 -0.0961525 -0.039654836 -0.18593982 -0.36395314
0.35497105 -0.027880337 -0.035639223 -0.20166591 -0.080879234 0.0077422876 0.0865865 -0.114298195
-0.30162692 0.23055944 -0.40446106 0.10311268 -0.016431155 -1.0778984 -0.06135136 0.096148096
-0.24652703 0.005505776 -0.437928 -0.11191297 -0.013345877 -0.15170597 0.0022781536 0.006711629
-0.5024527 -0.2839909 0.06718895 -0.61237794 -0.26392546 -0.12244097 -0.029003287 0.03988956

sequential/dense/MatMul f4 [128, 6]
00000000: 8196 4bbf 5ef6 25be ee83 183e 44b6 9ebd
00000010: c263 b6be ae41 19be 8207 2bbf fc54 a3be
00000020: 519c e7bc 6fb9 b53d 258d f6be dcda 543e
00000030: a0a9 f6be cb5e 99be 310d 2bbd a1f6 bf3c
00000040: 5291 a0bd dfec 83be 3d7f a4be dce8 bbbe
00000050: 656c 17be 0813 2d3e aef9 1f3e 08f8 7f3e
00000060: 566b 863d 12b2 cbbd 3270 ce3e 7922 2bbe
00000070: 7d89 cabd d310 5a3c c736 74be 7a0c c0bd
00000080: b60d dc3e 5f76 04bf f050 b4be e7a8 85be
00000090: 9aa2 b3be 9d63 1bbf ea8c da3d 86bf e03d
000000a0: 4ae9 e9be 616e 883e 29cc 8bbe 5548 00bd
000000b0: 2b3c 843e 1a9c 2f3e bf92 673e 2baa 033d
000000c0: 77ce 353f 2ea7 883b eab6 fa3c 688f fb3d
000000d0: f388 85bf 328e ce3d 70cc 14bc 9064 ca3c
000000e0: f5e2 89bc 0193 553d 3996 bf3f 716b c33d
000000f0: 599e 6a3e 612e 3cbe 99fd 753c a834 cd3c
00000100: 868c 8fbe 97e9 2c3e e382 753d 3bbe f9be
00000110: bd1b 1a3e bdcd 06be 1a8c 313e 494b ee3d
00000120: fd25 b13d 3e56 96be a81f 483e 7c56 a23d
00000130: 7667 d83d fc9b d43d 27e5 53bf ea93 343d
00000140: 4a44 833d 667a fb3d 80b2 97bf 4117 c73d
00000150: 080b dd3e 5c13 adbe 1bfc 5abe a278 013e
00000160: b40e 87be 6ee5 9f3d 640a f8be ffb1 153c
00000170: 758b 553d 654f 5fbe 0442 04bf c001 a63d
00000180: 80f1 8abe 3ca7 38be 46ce 1b3e cbf6 82be
00000190: f19d 1d3e 8cb8 0fbe d67a 24bd bf6f 29bd
000001a0: f4d1 a33e c176 6e3d f6eb 3f3e a2df 4dbe
000001b0: 1f19 33bd 638f 13be 38b5 8ebd fb76 ac3c
000001c0: bcd4 57be 03a8 0c3e a22f 063f c016 3ebc
000001d0: be91 f7bd 0dac 89bc f0a8 ff3e 3472 263e
000001e0: 9429 1cbe 82e7 6bbe 304a 1d3e 75cf 533e
000001f0: 7080 5dbe 3a66 4fbd 04f9 b2bd b0ec a9be
00000200: b767 ba3c 8b5f 073e d074 18be 3890 5fbe
00000210: a3c1 8dbd 4a65 013c bf33 42be 217c 8bbe
00000220: 2c6c fd3d f2e5 a6bd 65b0 383f 6516 c8bd
00000230: ab78 aebd 8023 4e3d 27ec ba3e fa25 503d
00000240: 3f62 5f3e 5750 b7bd ef8e a9bd 7de7 8fbe
00000250: 49a1 abbe 0f4a dd3d ed92 983d 2642 71be
00000260: 3cfc 353e 035e 673d 61ba 16be e096 57be
00000270: 16b8 abbe dcc9 4f3b b4eb c8bd a7c4 963d
00000280: d900 4bbf 922e fd3c d87a 6ebd d7bf a6be
00000290: f99b 03be fc8b ed3d 285c efbd 85cc f1bd
000002a0: d1e6 dfbe fd7a 81be 8a10 6ebe b6ce 723d
000002b0: 52e6 963d 302c c8bd 63f2 01be 6880 6bbe
000002c0: 8c76 aa3d b898 d0bb e83a 393d 89cb 06bd
000002d0: 165e 78be 1409 16be c279 aabc 175f c2bc
000002e0: 78c7 6d3e 81eb f73d 1eb1 8ebf baa2 2b3b
000002f0: b5a8 423e 922f 0dbe 21b0 743e 43f9 6c3c
00000300: e114 07be d2ed bbbc 164e 533e 3b9c 9abe
00000310: f096 5dbe 7e47 cfbc 162d 59be d867 9abe
00000320: 0513 273e 9d29 093d e5b2 a0bd 5473 ddbd
00000330: f90f 3b3f e070 f33b 2a62 673d 546c 4e3d
00000340: 78a1 1dc0 7d23 bebc 353e 993c e9ce 2dbe
00000350: 5e98 20bc 5de2 30bd 4124 c5bd 22bc cabd
00000360: 04a7 d93e 8e37 0cbe 2197 a9bc 8618 a0be
00000370: e76a c6be 35ef 1a3e 2ad5 763e e4f2 90be
00000380: a03a 81bc af50 563d 5723 22be 1f7c 8a3e
00000390: 9655 84be cb56 fcbe d2c4 733d f2d5 c93d
000003a0: ca49 d1bd 0bea 553e 5326 e03d 9212 69be
000003b0: 61a8 e63d 070f 24be 0e2a 9ebd a38e a7bb
000003c0: b2ef d83e faa0 2a3d cf75 0f3d d441 0dbe
000003d0: 65ab 31be 678a 60bd 76a2 f43e f500 84be
000003e0: a2f0 14be 673a aabe 9c7b cc3c 7661 78be
000003f0: b9c5 8dbe 51f8 0dbf c432 2b3c 4cf0 ce3d
-0.79526526 -0.16207263 0.14894077 -0.07749608 -0.35622984 -0.14966461 -0.6680833 -0.31900775
-0.02827278 0.08873259 -0.4815456 0.20786613 -0.4817629 -0.29955134 -0.041760627 0.023433032
-0.07840218 -0.25766656 -0.32128325 -0.36701095 -0.14787443 0.16901791 0.15622589 0.2499696
0.065634415 -0.099460736 0.40319973 -0.16712369 -0.09889505 0.013309675 -0.23849021 -0.0937738
0.4297921 -0.5174312 -0.35218 -0.26105425 -0.35084993 -0.6069887 0.106714085 0.1097403
-0.45685798 0.26646712 -0.273042 -0.03131898 0.25827155 0.17149392 0.22614573 0.032144707
0.71018165 0.00417032 0.030604798 0.12283212 -1.0432419 0.10085715 -0.009081945 0.024706155
-0.016831854 0.052142147 1.4967719 0.09541977 0.22911967 -0.18377067 0.015014076 0.025049523
-0.28036898 0.16885982 0.059939276 -0.48777947 0.15049644 -0.1316442 0.17338601 0.11635453
0.08649824 -0.29362673 0.19543326 0.07926652 0.105666086 0.10381314 -0.82771534 0.044086374
0.064095095 0.12279205 -1.1851349 0.09721232 0.4317248 -0.33803833 -0.21385233 0.12643674
-0.26378405 0.07807432 -0.48445427 0.009136676 0.05213495 -0.2180763 -0.5166323 0.081058025
-0.27137375 -0.18032545 0.15215406 -0.25578913 0.15392281 -0.14035243 -0.040156208 -0.041366335
0.3199612 0.05821872 0.18742356 -0.2010484 -0.04372513 -0.14410166 -0.069681585 0.021052828
-0.21077245 0.13735966 0.5241643 -0.011602104 -0.12088345 -0.016805673 0.49933577 0.16254503
-0.15250236 -0.23037532 0.15360332 0.20684607 -0.21631026 -0.0506346 -0.08738902 -0.3318839
0.022754533 0.1322004 -0.1488831 -0.21832359 -0.06921699 0.007897684 -0.18965052 -0.2724314
0.12374148 -0.08149327 0.72144157 -0.097698964 -0.08519109 0.050326824 0.36508295 0.050817467
0.21814822 -0.089508705 -0.082792155 -0.281063 -0.33521488 0.10805141 0.07449899 -0.2356039
0.17772001 0.05648614 -0.14719535 -0.21053648 -0.33538884 0.003170601 -0.09810582 0.07361727
-0.7929817 0.030905996 -0.05822262 -0.32568237 -0.12852468 0.115989655 -0.11687499 -0.11806587
-0.43730786 -0.25289145 -0.23248497 0.059279166 0.07368149 -0.09774053 -0.1269012 -0.22998202
0.08323392 -0.0063658617 0.045222193 -0.03290895 -0.24254641 -0.146519 -0.020810012 -0.023726983
0.23220623 0.12105466 -1.1147802 0.0026189522 0.19009669 -0.13787678 0.23895313 0.0144637255
-0.13191558 -0.02294055 0.20635256 -0.3019732 -0.2163961 -0.025302645 -0.21208605 -0.30157351
0.16315849 0.03348695 -0.078466214 -0.10813013 0.7307125 0.0074292272 0.0564901 0.05039628
-2.4629803 -0.023210282 0.01870642 -0.16973461 -0.009801952 -0.043184627 -0.096260555 -0.09899165
0.42510235 -0.13693067 -0.020701947 -0.3126871 -0.38753435 0.15130313 0.24104753 -0.2831031
-0.015775025 0.05232304 -0.15833794 0.27047822 -0.25846547 -0.49284968 0.059513874 0.0985526
-0.10219152 0.20890062 0.1094481 -0.2276099 0.112625845 -0.16021357 -0.07722865 -0.005113439
0.42370373 0.041657425 0.03502446 -0.13794643 -0.17350538 -0.05481949 0.47780198 -0.2578198
-0.14544919 -0.33247682 0.024961285 -0.24255928 -0.27689913 -0.55457026 0.010449115 0.10104427

sequential/dense_1/MatMul f4 [64, 128]
00000000: 529c 9cbd e79b 213c 31d2 af3d b46e ebbd
00000010: cf66 633d 70fc 50be 7ef6 763c 157e 02bd
00000020: 53f1 9bbe e86b bcbe 85d7 2bbe cadb 16bb
00000030: 5a6c b23d ea53 5bbe 8ffb 07be bc54 6cbd
00000040: d5ad f4bd 5200 3bbe 2c9c e0ba 89cb 55bd
00000050: 49fd ad3d b080 12bd ebcf 903d c75a ef3d
00000060: 53b9 313b a853 703c a80f 92be 41ba dfbc
00000070: 363c f6bd d245 8b3d d591 29be ed92 a7be
00000080: 0976 71bd d93a e6bd e734 e8be 2027 e63d
00000090: eb6b 933d 1942 05be 8fa5 2c3d b6a3 e43d
000000a0: 4969 8abd 9cee b2bd 3bd3 e0bd 6453 993d
000000b0: d62c 093d d243 95bc 7f9e b3bd 6a7a 1fbe
000000c0: 4dd3 2d3d 2d39 34bd bea8 2a3e 190b 0bbd
000000d0: 95b6 3bbe 1fda 0bbd eabb 19bd 2b1a eabd
000000e0: 8e1c 35bd 141a 80be 3cc2 00be c2aa 11be
000000f0: 9ec7 c2bd 6f3a fe3d 4cc9 f9bd f93b 90be
00000100: a822 71be 9dc4 d63d e773 223d 2c9b 33be
00000110: 10b9 24bd 673f d8bc 9878 b3be 3119 8cbe
00000120: 31e5 69be 08cf 8cbe 90b2 09be 9a70 ae3d
00000130: 22b0 4dbb 16f9 d1bd f852 4bbd 5a49 81be
00000140: aa96 9d3d 0c3c 83bd ae3e e23c 755a 60bd
00000150: 2990 febd 2e4d 223a 6e0c 983d 7469 23be
00000160: 6ace 15be 0a20 013d b475 d4bd 20ff 82be
00000170: 02a4 58bd 3f50 b13d ef00 053e ca77 e03d
00000180: 2216 5b3c 514b d0bc 2379 bfbd 8ac0 02be
00000190: a161 073e 69f9 43bc a174 cebc e84b b83d
000001a0: 7e55 d0ba 34c9 09bb 0da6 0a3e 607f f33d
000001b0: 8228 fd3d 2c30 0fbe 249e 84bc 06f3 0bbe
000001c0: 4b8b af3d 3a9d ecbd 8fd4 e5bd 5409 01be
000001d0: b128 333e b416 283e 94a4 fd3d c2ca 83bd
000001e0: dcbb b1bb 56f0 48be 2214 e63d aef3 0bbd
000001f0: 8817 c8bd fe63 e43d a850 e33d 3eca 50be
00000200: 42de 0cbe b218 b83c da77 04be 4f1c 743d
00000210: 0e2d 033d 2af4 6abe 3099 733d df19 3fbd
00000220: 1934 c0bd b594 84be 8c27 76bd d2df 0ebe
00000230: cb1b 95bd b5dc a53c 8748 76bd 3670 3a3e
00000240: b52f 80bc 81e5 15bc b0b8 c1ba fc91 d9bd
00000250: 0062 cabd 9a7b ec3d 1382 31be 5fd3 9ebd
00000260: 54c3 c93d 9a0b fb3b ca6d 513d b93c 403d
00000270: 28b1 aabd 0889 6d3d e819 47bb bfc9 623d
00000280: 77f0 03be 2a1e 323d df1b 58ba 5411 2c3e
00000290: 9a49 25be d234 0abe 9a92 203d 7ef2 21be
000002a0: a63e ddbd a32e 673e 44ed 013e cae5 163d
000002b0: 35e6 c7bd f20d ce3d 7cf8 24be 42d6 f73d
000002c0: 0156 12be 9f27 813d eeed 81bd 26b2 823c
000002d0: 53c8 f63d 9673 e9bd e876 88bd 6c49 0d3e
000002e0: 42ea 553d f637 91bd b817 debd 7ccc 7c39
000002f0: 0b15 e4bd 7654 733b 4f5f abbd eff3 d33d
00000300: 98f2 ebbd 4578 3dbd e87b 173e c1f6 0fbe
00000310: 2bc8 993d 3b4c c1ba 42fb 243e a392 bdbe
00000320: 7f6e fdbd c038 f2bc 717e eabd f0c6 66bd
00000330: cdc3 4b3d 013e 863d 14a9 b9bd d7f3 8fbd
00000340: 9825 a1bd 53a8 88be 2d5d 033e 3f86 88bd
00000350: 3c4f 0dbe ec3a 16be cd3b 52be eff7 d6bd
00000360: dc37 9bbe b733 603d 821e 143d c412 3c3d
00000370: 2638 b9bd a977 babc 38d4 edbd c40b 02be
00000380: 3231 8dbd d03b 82bd bcfc 20be 6a7a 3ebc
00000390: d911 7fbc c9d0 fa3d 979a 46be e0f5 14bd
000003a0: 3cad 0e3e c3b3 15bd 8da7 c8bd 1875 c9bc
000003b0: 9015 103e 2774 1bbd bef8 14bd 8a31 98bd
000003c0: cf2c e63d 7ba6 24be a13b 3cbe 6214 2abe
000003d0: 6463 d93d 84b1 66bd a250 7b3d 4cad 2c3e
000003e0: 825c 26be b31c e0bd acb0 34be 305e 6cbd
000003f0: 1c27 6bbc 633a a6bd 34b1 993b 7f32 8e3d
-0.07647003 0.00986383 0.08585013 -0.11495724 0.055517968 -0.20408797 0.015073417 -0.031858522
-0.30457553 -0.36801076 -0.16781433 -0.0023019188 0.08712073 -0.2141873 -0.13279556 -0.057697996
-0.11947218 -0.18261841 -0.0017136387 -0.05219606 0.08495576 -0.035767257 0.07070907 0.11687236
0.0027118518 0.014668383 -0.2852757 -0.027310492 -0.12023203 0.068004265 -0.16559537 -0.32729283
-0.058950458 -0.11241693 -0.4535286 0.11237931 0.07198318 -0.13013496 0.042150076 0.11164038
-0.06758363 -0.087369174 -0.10977789 0.074866086 0.033490025 -0.018220816 -0.08770465 -0.15574041
0.04243784 -0.04399984 0.16665933 -0.03394613 -0.18331368 -0.034143563 -0.037532724 -0.114307724
-0.044216685 -0.25019896 -0.12574095 -0.14225295 -0.0951073 0.12413489 -0.121965975 -0.28170756
-0.23548377 0.1048672 0.039661314 -0.17539662 -0.04021555 -0.02639742 -0.35052943 -0.2736297
-0.22841336 -0.27501702 -0.13447022 0.08517571 -0.00313855 -0.102525875 -0.049639672 -0.25251275
0.076947525 -0.064079374 0.027617779 -0.054773767 -0.1242984 0.000619131 0.07424246 -0.15958196
-0.14629522 0.031524695 -0.103740126 -0.2558527 -0.052890785 0.08657884 0.12988637 0.10960348
0.013371976 -0.025426539 -0.09349277 -0.1276876 0.13220836 -0.0119613195 -0.025202097 0.08998853
-0.0015894619 -0.0021024467 0.13539906 0.11889529 0.12361242 -0.1398322 -0.016188689 -0.13666925
0.0857149 -0.11553426 -0.11222183 -0.12601215 0.17495991 0.1641491 0.123849064 -0.06435157
-0.005424006 -0.19622931 0.11234309 -0.034167938 -0.09770113 0.111518845 0.11099368 -0.2038965
-0.1375666 0.022472713 -0.12936345 0.05959731 0.03202539 -0.22944704 0.059472263 -0.046655532
-0.09384937 -0.25894704 -0.06009631 -0.13952568 -0.07280692 0.020246843 -0.06012776 0.18206868
-0.015647748 -0.009148956 -0.0014779773 -0.106235474 -0.09881973 0.115470126 -0.17334776 -0.077551596
0.09851709 0.007661295 0.051130094 0.04693291 -0.08334571 0.05799201 -0.0030380432 0.05536818
-0.12884699 0.043485798 -0.0008243899 0.16803485 -0.16141358 -0.13496712 0.03920231 -0.1581516
-0.10802965 0.22576384 0.12688166 0.036840238 -0.097607054 0.100612536 -0.16110414 0.12101413
-0.1429062 0.06306385 -0.063442096 0.015954088 0.120499276 -0.113989994 -0.066633046 0.1379754
0.05222536 -0.07090752 -0.10844368 0.00024108769 -0.11136826 0.00371292 -0.08367788 0.10349261
-0.115208805 -0.046257276 0.1479336 -0.14058973 0.07508882 -0.001474745 0.16111472 -0.37025937
-0.12374591 -0.029568076 -0.11449898 -0.056342065 0.049747277 0.06554795 -0.09065452 -0.07028931
-0.078684986 -0.2669092 0.12828512 -0.066662304 -0.13799757 -0.14670914 -0.20530625 -0.10496508
-0.30316055 0.05473682 0.036161907 0.045916334 -0.090439126 -0.022762137 -0.11612743 -0.126998
-0.06894149 -0.063590646 -0.1572141 -0.0116258655 -0.01556822 0.12246854 -0.19394909 -0.036367297
0.13933271 -0.036548387 -0.09797583 -0.024591967 0.14070725 -0.03795257 -0.03637003 -0.07431324
0.11239015 -0.16079132 -0.18382122 -0.16609338 0.106146604 -0.056321636 0.061356194 0.16862983
-0.16246226 -0.10942974 -0.1764552 -0.05770701 -0.014352586 -0.08116605 0.0046903137 0.06943225

sequential/dense_2/MatMul f4 [32, 64]
00000000: 8576 903e ae91 45be 786e e7bd e47f 4f3c
00000010: 1d2f 90bd cec8 1bbd 19c6 43be a40d 34bd
00000020: cd35 fbbd d0cb 5d3e 6181 d33d 71e6 2a3e
00000030: 0148 48bd a9c4 8c3d ad81 8f3d 8703 09bd
00000040: 27f6 9a3c 4f07 c0bc 4f4c c73d 8612 d0be
00000050: e2c8 953d e5bc 31be 457a cdbe cb95 63be
00000060: 4b01 0abe 6f90 bb3e 0d5b 3dbe 1b63 43be
00000070: dde4 473d 5c65 2cbe b495 95be 97d4 00bd
00000080: 36f2 303d 1799 67be fef0 f9bd 070d 713c
00000090: 654c abbe 2c4a 8fbe 7c94 023d 4dc4 b7be
000000a0: 0c60 2ebe 6fd2 9bbe 305d d43c fc56 713e
000000b0: 223f 263e 7a73 643d 0c73 b0bd f847 2cbe
000000c0: bf44 8abc dc4e e1bd 2295 97be 3d12 babd
000000d0: c31c 8bbe 5fa7 06be 12b2 dfbd 83bd efbd
000000e0: 2cec 0f3e b144 10be e8a8 4f3c 91cb f3bd
000000f0: 8dd2 3ebe c183 8cbb 274c bd3c 3678 b1be
00000100: 7332 43be 6334 a53d 0ced 8c3a 68f3 62be
00000110: 4314 7f3e a532 5b3c 90f8 95bd c1bd 8c3e
00000120: 1618 0d3e f3cd 363d d515 9ebd c5f5 87be
00000130: 737e d33d af91 cfbd 71ee a1bd 1ab7 a1bd
00000140: bfbd 913e 5092 f7bd f37b 193e 9642 423e
00000150: 18b8 82bd 7c13 fd3c 18d2 0e3d bbda 733d
00000160: 16c8 883d f61f 32be 79cc f1bc 669d 653e
00000170: 07aa 583e 0569 9d3c 4688 ddbb c022 9f3e
00000180: 7f5e d5bd 1f5e 7a3e da97 693c 3720 d23e
00000190: 39de 873e 44a0 2d3d f60e 463e fc99 f73d
000001a0: c8be 413e 52fe 62bb 96e8 793e 1ea7 29bd
000001b0: e196 c23c 5485 173e f125 76be c117 4b3e
000001c0: 5e0d 4d3e 801a 1c3e 7c0a 993e 523d d73d
000001d0: c4b4 3b3d 847b 22bd 4c72 5b3e 2555 a03e
000001e0: 0fbe 2f3d 3bf6 8a3d 2205 dabd 78d9 07be
000001f0: 6157 913d bba8 4bbe 2899 9b3d 47aa 8bbd
00000200: 7111 a83e 9318 3cbd e345 f8bd 9b7f d9bc
00000210: 1d7c cabd f5ef 9fbd 6228 54be 3e7e 7ebe
00000220: 7a39 953b d546 333e e657 153c f1e3 993e
00000230: 05c6 1ebe e90a b4bc 52fb 15be 6f42 2fbe
00000240: 965b f2bd a650 1d3e 69d6 f5bd 1a85 b1be
00000250: 5d2c 1bbe 52ef 5fbe 2778 9abe cbdd 51be
00000260: bcfa 8dbd 2937 653e 5171 1ebe 71c1 66be
00000270: d658 eabd 996f 9a3d 8b82 8cbe 8641 77bd
00000280: 0f92 0fbe 60d3 d0be 9ac7 8ebd 5c50 ad3c
00000290: e84d 0bbe 1867 b7be 81cd 7fbe 1a0c d1be
000002a0: 2ee2 26be beda 42be 9857 7c3d cd73 663e
000002b0: 35b9 893e 7bdb 893d 251c 853e 3a8f 863d
000002c0: 40b4 b43d ef34 d9bc 8c78 08bb 3c83 ed3d
000002d0: 4d55 9cbe 6dff d43d e1b4 3fbd e5b2 c5bb
000002e0: 7881 1b3d c9b2 ddbc 328f 9c3e c308 82be
000002f0: ca64 1bbe 6633 213e a519 4ebe 6e1f 6dbe
00000300: 02f9 a83d f4e1 c33d 735a b33b c2b9 f4bd
00000310: 950b 8e3c 9202 51bd c121 8f3e e963 193e
00000320: 6170 5c3e fa15 373d a1bb 8ebe d069 73be
00000330: 2c91 d7bc 2ea2 5b3e 09cf 7dbe c42b 0cbe
00000340: d851 f4bc 42a5 42bd c0c9 a93e a7cc a83b
00000350: 2804 7dbe e58e 83bd 00f2 e2bd 388c 213e
00000360: a165 623d 04d2 26bc fa2b 45bd 2402 923e
00000370: 4c4b c1bc cbdf 9abd fed5 803d c72a 4d3d
00000380: 893a a93c f4d0 043e 7ee2 efbc 0b7d 373e
00000390: eb9f b5bd eeb6 473e 945e 283d e4ce 953d
000003a0: 48d4 89be 79cd 0b3e 9725 f63d 101d 7abe
000003b0: 0bc1 7d3d a8eb 853e ee1e 12be c334 293e
000003c0: f8ef d2bd 1330 5e3e dfd5 273e 9761 0e3e
000003d0: 1d7e 473e bbb3 553e b0d3 4c3e bd4d c63d
000003e0: 7262 b13e ebee e43e 007d 7abe e5ba 933d
000003f0: 3c25 373e e3ec a93d 6f08 db3d 0bb4 a03e
0.28215423 -0.19293854 -0.11300367 0.012664769 -0.07040236 -0.0380333 -0.19118537 -0.04395832
-0.12266121 0.2165978 0.103274114 0.16689469 -0.048896793 0.068734474 0.070071556 -0.03345063
0.018916203 -0.023440985 0.097313516 -0.40639132 0.07313706 -0.17357214 -0.40132347 -0.2222511
-0.13477056 0.36633632 -0.18491764 -0.19080774 0.048802245 -0.1683554 -0.29215777 -0.03145274
0.04319974 -0.22616993 -0.12204169 0.014712579 -0.33456722 -0.27986276 0.031879887 -0.35891953
-0.17028826 -0.30433986 0.025923342 0.23568338 0.16235021 0.05577419 -0.086156934 -0.16824329
-0.016878484 -0.11001369 -0.29605967 -0.0908551 -0.2717038 -0.13149785 -0.10922636 -0.11706068
0.14054936 -0.14088704 0.012674548 -0.119040616 -0.18635006 -0.004288167 0.023107601 -0.34662026
-0.19062214 0.080666326 0.0010751798 -0.22163165 0.24910073 0.013378774 -0.073228 0.2748852
0.1377872 0.044630002 -0.07719008 -0.26554695 0.10326853 -0.10135209 -0.07906807 -0.07896252
0.28465077 -0.12088454 0.14988689 0.18970713 -0.06382769 0.03089308 0.03486833 0.05953477
0.06678788 -0.17395005 -0.029516445 0.22423324 0.2115861 0.019215116 -0.00676063 0.310812
-0.10418414 0.24449967 0.014257396 0.41040203 0.2653673 0.04238917 0.19341645 0.12089917
0.18920434 -0.003463645 0.2440513 -0.04141914 0.023753585 0.14796954 -0.24037911 0.1983328
0.2002463 0.15244484 0.2989081 0.10509743 0.04582669 -0.039668575 0.2143032 0.3131496
0.042905863 0.06785246 -0.1064551 -0.13266551 0.07096744 -0.19888584 0.075975716 -0.06819587
0.32825807 -0.045921873 -0.12122705 -0.026550105 -0.09886954 -0.0780944 -0.2071853 -0.24852845
0.004553971 0.17507489 0.009115195 0.30056718 -0.15505226 -0.021977859 -0.14646652 -0.17115186
-0.11833875 0.15362796 -0.12003786 -0.3467186 -0.15153642 -0.21868637 -0.30169794 -0.20494764
-0.069325894 0.22384323 -0.15472914 -0.2253473 -0.11442725 0.07540817 -0.27443346 -0.060365222
-0.1402056 -0.40786266 -0.06971665 0.021156482 -0.13603938 -0.35820842 -0.24980737 -0.40829545
-0.16297218 -0.19028756 0.061606973 0.22505112 0.26899114 0.06731316 0.25998035 0.06570287
0.088234425 -0.026514499 -0.0020823805 0.115972966 -0.3053383 0.10400281 -0.04680336 -0.006033289
0.037965268 -0.02706279 0.30578 -0.2539731 -0.15175167 0.15742263 -0.2012697 -0.2315652
0.082506195 0.095645815 0.005473429 -0.11949493 0.017339507 -0.051027842 0.2795544 0.14979519
0.21527244 0.044698693 -0.27877524 -0.23770833 -0.02631434 0.21448585 -0.24786009 -0.1368857
-0.029824182 -0.047520883 0.33161736 0.0051513496 -0.24708617 -0.06423739 -0.11081314 0.15776145
0.055272702 -0.010181908 -0.048137642 0.28517258 -0.023595475 -0.07562216 0.06290816 0.050089624
0.020657795 0.12970334 -0.029282805 0.17918794 -0.088683926 0.19503376 0.04110582 0.07314852
-0.2691977 0.136526 0.120188884 -0.24425149 0.06195168 0.26156354 -0.14269611 0.16524033
-0.10299677 0.21698026 0.16390179 0.13904415 0.19481702 0.20869343 0.20002627 0.09682796
0.3464542 0.4471353 -0.24461746 0.07213382 0.17885298 0.08297136 0.10694968 0.31387362

sequential/dense_3/MatMul f4 [2, 32]
00000000: d21d a3be 065e 48bc 5b79 81be 60fd ff3e
00000010: d073 913d 5ad5 a43e 7fe0 c43e 06e6 813e
00000020: 81f9 6cbd 9a7a 223e 16bf 88bd 67c3 633e
00000030: e358 b4be 3463 64be 8e16 93bb 172a 1cbf
00000040: 8b2b 29bc 639a b3bd 3206 bf3d bd90 e5be
00000050: d519 833e 56fb e33d d9bf b43e d8e8 e0be
00000060: cb82 023e d61c 8b3e 9f5e 3d3e 7054 eebe
00000070: dcf6 b23e ea68 b4bc 67c8 69be 8dd8 053e
00000080: 824d 4c3e c762 7dbe b5fd b33e d0b7 763e
00000090: 201f afbe 954e bdbc cdbb 383e 3521 8ebd
000000a0: 4787 90be 8a51 1abe 3dd9 f93e 5138 8d3c
000000b0: 79e7 d63e 9f22 143f 23c0 28be 9946 d43d
000000c0: fd50 9ebe 4510 ea3e 3432 26be 5a55 633c
000000d0: e429 fb3d e364 49be 70eb 61be a705 fe3d
000000e0: 6d92 92be 45a8 943d fcf2 bcbd 5ba2 073e
000000f0: c0a9 923d 1951 9ebe 180b 8a3e 0cae 58bd
-0.3185869 -0.012229448 -0.252879 0.49997997 0.071021676 0.32194024 0.38452527 0.25370806
-0.057855133 0.15867081 -0.06677072 0.22242509 -0.35224065 -0.22303468 -0.0044887727 -0.61001724
-0.010325323 -0.08769681 0.093273535 -0.4483699 0.25605646 0.11131923 0.35302618 -0.43927646
0.12745206 0.27170438 0.18493126 -0.46548796 0.34953964 -0.022022683 -0.22830354 0.13070889
0.19951442 -0.24744712 0.351545 0.24093556 -0.34203434 -0.02310876 0.1804039 -0.069399275
-0.28228208 -0.15070167 0.48798552 0.017238768 0.41973475 0.5786533 -0.16479544 0.10365028
-0.30921164 0.45715538 -0.16230088 0.01387533 0.122638494 -0.19667391 -0.22062469 0.12403422
-0.2862734 0.07258657 -0.09226033 0.13245527 0.071612835 -0.30921248 0.2696159 -0.05290036
